…
=============================================================================================================
Layer (type (var_name))                  Input Shape               Output Shape              Param #                   Param %                   Kernel Shape              Mult-Adds                 Trainable
=======================================================================================================================================================================================================================
LeNet5_Dynamic (LeNet5_Dynamic)          [1, 3, 64, 64]            [1, 2]                    --                             --                   --                        --                        True
├─Sequential (conv_layers)               [1, 3, 64, 64]            [1, 16, 56, 56]           --                             --                   --                        --                        True
│    └─Conv2d (0)                        [1, 3, 64, 64]            [1, 6, 62, 62]            168                         0.00%                   [3, 3]                    645,792                   True
│    └─ReLU (1)                          [1, 6, 62, 62]            [1, 6, 62, 62]            --                             --                   --                        --                        --
│    └─MaxPool2d (2)                     [1, 6, 62, 62]            [1, 6, 60, 60]            --                             --                   3                         --                        --
│    └─Conv2d (3)                        [1, 6, 60, 60]            [1, 16, 58, 58]           880                         0.01%                   [3, 3]                    2,960,320                 True
│    └─ReLU (4)                          [1, 16, 58, 58]           [1, 16, 58, 58]           --                             --                   --                        --                        --
│    └─MaxPool2d (5)                     [1, 16, 58, 58]           [1, 16, 56, 56]           --                             --                   3                         --                        --
├─Sequential (fc_layers)                 [1, 50176]                [1, 2]                    --                             --                   --                        --                        True
│    └─Linear (0)                        [1, 50176]                [1, 256]                  12,845,312                 99.73%                   --                        12,845,312                True
│    └─ReLU (1)                          [1, 256]                  [1, 256]                  --                             --                   --                        --                        --
│    └─Linear (2)                        [1, 256]                  [1, 128]                  32,896                      0.26%                   --                        32,896                    True
│    └─ReLU (3)                          [1, 128]                  [1, 128]                  --                             --                   --                        --                        --
│    └─Linear (4)                        [1, 128]                  [1, 2]                    258                         0.00%                   --                        258                       True
│    └─Softmax (5)                       [1, 2]                    [1, 2]                    --                             --                   --                        --                        --
=======================================================================================================================================================================================================================
Total params: 12,879,514
Trainable params: 12,879,514
Non-trainable params: 0
Total mult-adds (M): 16.48
…
