…
=============================================================================================================
Layer (type (var_name))                  Input Shape               Output Shape              Param #                   Param %                   Kernel Shape              Mult-Adds                 Trainable
=======================================================================================================================================================================================================================
LeNet5_Dynamic (LeNet5_Dynamic)          [1, 3, 64, 64]            [1, 2]                    --                             --                   --                        --                        True
├─Sequential (conv_layers)               [1, 3, 64, 64]            [1, 16, 12, 12]           --                             --                   --                        --                        True
│    └─Conv2d (0)                        [1, 3, 64, 64]            [1, 6, 60, 60]            456                         0.07%                   [5, 5]                    1,641,600                 True
│    └─ReLU (1)                          [1, 6, 60, 60]            [1, 6, 60, 60]            --                             --                   --                        --                        --
│    └─MaxPool2d (2)                     [1, 6, 60, 60]            [1, 6, 29, 29]            --                             --                   3                         --                        --
│    └─Conv2d (3)                        [1, 6, 29, 29]            [1, 16, 25, 25]           2,416                       0.40%                   [5, 5]                    1,510,000                 True
│    └─ReLU (4)                          [1, 16, 25, 25]           [1, 16, 25, 25]           --                             --                   --                        --                        --
│    └─MaxPool2d (5)                     [1, 16, 25, 25]           [1, 16, 12, 12]           --                             --                   3                         --                        --
├─Sequential (fc_layers)                 [1, 2304]                 [1, 2]                    --                             --                   --                        --                        True
│    └─Linear (0)                        [1, 2304]                 [1, 256]                  590,080                    96.81%                   --                        590,080                   True
│    └─ReLU (1)                          [1, 256]                  [1, 256]                  --                             --                   --                        --                        --
│    └─Linear (2)                        [1, 256]                  [1, 64]                   16,448                      2.70%                   --                        16,448                    True
│    └─ReLU (3)                          [1, 64]                   [1, 64]                   --                             --                   --                        --                        --
│    └─Linear (4)                        [1, 64]                   [1, 2]                    130                         0.02%                   --                        130                       True
│    └─Softmax (5)                       [1, 2]                    [1, 2]                    --                             --                   --                        --                        --
=======================================================================================================================================================================================================================
Total params: 609,530
Trainable params: 609,530
Non-trainable params: 0
Total mult-adds (M): 3.76
…
