…
=============================================================================================================
Layer (type (var_name))                  Input Shape               Output Shape              Param #                   Param %                   Kernel Shape              Mult-Adds                 Trainable
=======================================================================================================================================================================================================================
LeNet5_Dynamic (LeNet5_Dynamic)          [1, 3, 64, 64]            [1, 2]                    --                             --                   --                        --                        True
├─Sequential (conv_layers)               [1, 3, 64, 64]            [1, 16, 13, 13]           --                             --                   --                        --                        True
│    └─Conv2d (0)                        [1, 3, 64, 64]            [1, 6, 60, 60]            456                         0.03%                   [5, 5]                    1,641,600                 True
│    └─ReLU (1)                          [1, 6, 60, 60]            [1, 6, 60, 60]            --                             --                   --                        --                        --
│    └─MaxPool2d (2)                     [1, 6, 60, 60]            [1, 6, 30, 30]            --                             --                   2                         --                        --
│    └─Conv2d (3)                        [1, 6, 30, 30]            [1, 16, 26, 26]           2,416                       0.16%                   [5, 5]                    1,633,216                 True
│    └─ReLU (4)                          [1, 16, 26, 26]           [1, 16, 26, 26]           --                             --                   --                        --                        --
│    └─MaxPool2d (5)                     [1, 16, 26, 26]           [1, 16, 13, 13]           --                             --                   2                         --                        --
├─Sequential (fc_layers)                 [1, 2704]                 [1, 2]                    --                             --                   --                        --                        True
│    └─Linear (0)                        [1, 2704]                 [1, 512]                  1,384,960                  91.14%                   --                        1,384,960                 True
│    └─ReLU (1)                          [1, 512]                  [1, 512]                  --                             --                   --                        --                        --
│    └─Linear (2)                        [1, 512]                  [1, 256]                  131,328                     8.64%                   --                        131,328                   True
│    └─ReLU (3)                          [1, 256]                  [1, 256]                  --                             --                   --                        --                        --
│    └─Linear (4)                        [1, 256]                  [1, 2]                    514                         0.03%                   --                        514                       True
│    └─Softmax (5)                       [1, 2]                    [1, 2]                    --                             --                   --                        --                        --
=======================================================================================================================================================================================================================
Total params: 1,519,674
Trainable params: 1,519,674
Non-trainable params: 0
Total mult-adds (M): 4.79
…
