…
=============================================================================================================
Layer (type (var_name))                  Input Shape               Output Shape              Param #                   Param %                   Kernel Shape              Mult-Adds                 Trainable
=======================================================================================================================================================================================================================
LeNet5_Dynamic (LeNet5_Dynamic)          [1, 3, 64, 64]            [1, 2]                    --                             --                   --                        --                        True
├─Sequential (conv_layers)               [1, 3, 64, 64]            [1, 16, 11, 11]           --                             --                   --                        --                        True
│    └─Conv2d (0)                        [1, 3, 64, 64]            [1, 6, 58, 58]            888                         0.08%                   [7, 7]                    2,987,232                 True
│    └─ReLU (1)                          [1, 6, 58, 58]            [1, 6, 58, 58]            --                             --                   --                        --                        --
│    └─MaxPool2d (2)                     [1, 6, 58, 58]            [1, 6, 29, 29]            --                             --                   2                         --                        --
│    └─Conv2d (3)                        [1, 6, 29, 29]            [1, 16, 23, 23]           4,720                       0.42%                   [7, 7]                    2,496,880                 True
│    └─ReLU (4)                          [1, 16, 23, 23]           [1, 16, 23, 23]           --                             --                   --                        --                        --
│    └─MaxPool2d (5)                     [1, 16, 23, 23]           [1, 16, 11, 11]           --                             --                   2                         --                        --
├─Sequential (fc_layers)                 [1, 1936]                 [1, 2]                    --                             --                   --                        --                        True
│    └─Linear (0)                        [1, 1936]                 [1, 512]                  991,744                    87.83%                   --                        991,744                   True
│    └─ReLU (1)                          [1, 512]                  [1, 512]                  --                             --                   --                        --                        --
│    └─Linear (2)                        [1, 512]                  [1, 256]                  131,328                    11.63%                   --                        131,328                   True
│    └─ReLU (3)                          [1, 256]                  [1, 256]                  --                             --                   --                        --                        --
│    └─Linear (4)                        [1, 256]                  [1, 2]                    514                         0.05%                   --                        514                       True
│    └─Softmax (5)                       [1, 2]                    [1, 2]                    --                             --                   --                        --                        --
=======================================================================================================================================================================================================================
Total params: 1,129,194
Trainable params: 1,129,194
Non-trainable params: 0
Total mult-adds (M): 6.61
…
