…
=============================================================================================================
Layer (type (var_name))                  Input Shape               Output Shape              Param #                   Param %                   Kernel Shape              Mult-Adds                 Trainable
=======================================================================================================================================================================================================================
LeNet5_Dynamic (LeNet5_Dynamic)          [1, 3, 64, 64]            [1, 2]                    --                             --                   --                        --                        True
├─Sequential (conv_layers)               [1, 3, 64, 64]            [1, 16, 52, 52]           --                             --                   --                        --                        True
│    └─Conv2d (0)                        [1, 3, 64, 64]            [1, 6, 60, 60]            456                         0.01%                   [5, 5]                    1,641,600                 True
│    └─ReLU (1)                          [1, 6, 60, 60]            [1, 6, 60, 60]            --                             --                   --                        --                        --
│    └─MaxPool2d (2)                     [1, 6, 60, 60]            [1, 6, 58, 58]            --                             --                   3                         --                        --
│    └─Conv2d (3)                        [1, 6, 58, 58]            [1, 16, 54, 54]           2,416                       0.04%                   [5, 5]                    7,045,056                 True
│    └─ReLU (4)                          [1, 16, 54, 54]           [1, 16, 54, 54]           --                             --                   --                        --                        --
│    └─MaxPool2d (5)                     [1, 16, 54, 54]           [1, 16, 52, 52]           --                             --                   3                         --                        --
├─Sequential (fc_layers)                 [1, 43264]                [1, 2]                    --                             --                   --                        --                        True
│    └─Linear (0)                        [1, 43264]                [1, 128]                  5,537,920                  99.80%                   --                        5,537,920                 True
│    └─ReLU (1)                          [1, 128]                  [1, 128]                  --                             --                   --                        --                        --
│    └─Linear (2)                        [1, 128]                  [1, 64]                   8,256                       0.15%                   --                        8,256                     True
│    └─ReLU (3)                          [1, 64]                   [1, 64]                   --                             --                   --                        --                        --
│    └─Linear (4)                        [1, 64]                   [1, 2]                    130                         0.00%                   --                        130                       True
│    └─Softmax (5)                       [1, 2]                    [1, 2]                    --                             --                   --                        --                        --
=======================================================================================================================================================================================================================
Total params: 5,549,178
Trainable params: 5,549,178
Non-trainable params: 0
Total mult-adds (M): 14.23
…
