…
=============================================================================================================
Layer (type (var_name))                  Input Shape               Output Shape              Param #                   Param %                   Kernel Shape              Mult-Adds                 Trainable
=======================================================================================================================================================================================================================
LeNet5_Dynamic (LeNet5_Dynamic)          [1, 3, 64, 64]            [1, 2]                    --                             --                   --                        --                        True
├─Sequential (conv_layers)               [1, 3, 64, 64]            [1, 16, 54, 54]           --                             --                   --                        --                        True
│    └─Conv2d (0)                        [1, 3, 64, 64]            [1, 6, 60, 60]            456                         0.00%                   [5, 5]                    1,641,600                 True
│    └─ReLU (1)                          [1, 6, 60, 60]            [1, 6, 60, 60]            --                             --                   --                        --                        --
│    └─MaxPool2d (2)                     [1, 6, 60, 60]            [1, 6, 59, 59]            --                             --                   2                         --                        --
│    └─Conv2d (3)                        [1, 6, 59, 59]            [1, 16, 55, 55]           2,416                       0.02%                   [5, 5]                    7,308,400                 True
│    └─ReLU (4)                          [1, 16, 55, 55]           [1, 16, 55, 55]           --                             --                   --                        --                        --
│    └─MaxPool2d (5)                     [1, 16, 55, 55]           [1, 16, 54, 54]           --                             --                   2                         --                        --
├─Sequential (fc_layers)                 [1, 46656]                [1, 2]                    --                             --                   --                        --                        True
│    └─Linear (0)                        [1, 46656]                [1, 256]                  11,944,192                 99.70%                   --                        11,944,192                True
│    └─ReLU (1)                          [1, 256]                  [1, 256]                  --                             --                   --                        --                        --
│    └─Linear (2)                        [1, 256]                  [1, 128]                  32,896                      0.27%                   --                        32,896                    True
│    └─ReLU (3)                          [1, 128]                  [1, 128]                  --                             --                   --                        --                        --
│    └─Linear (4)                        [1, 128]                  [1, 2]                    258                         0.00%                   --                        258                       True
│    └─Softmax (5)                       [1, 2]                    [1, 2]                    --                             --                   --                        --                        --
=======================================================================================================================================================================================================================
Total params: 11,980,218
Trainable params: 11,980,218
Non-trainable params: 0
Total mult-adds (M): 20.93
…
